ML/fish.onnx (onnx, 88454 bytes, 6 tensors)

fc.1.bias f4 [31]
-0.0062653627 -0.026436748 -0.030436737 0.017681938 0.028838146 -0.010656717 0.016319664 0.033791922
0.014909742 0.032967895 -0.038271505 0.035885263 -0.013405296 0.03455153 0.03939552 0.024546135
0.032528143 0.0023104209 0.027419778 0.008903233 0.024049265 0.022676768 -0.03770103 0.02522518
0.012652728 -0.035854224 0.0046838704 -0.008844602 0.012236221 0.03680481 -0.039591715
00000000: ac4d cdbb e191 d8bc 7756 f9bc b6d9 903c
00000010: fa3d ec3c 8399 2ebc d1b0 853c 6669 0a3d
00000020: fe47 743c 5809 073d 95c2 1cbd 6dfc 123d
00000030: e3a1 5bbc e885 0d3d 325d 213d fa14 c93c
00000040: 3b3c 053d 6e6a 173b 719f e03c dede 113c
00000050: f702 c53c a1c4 b93c 656c 1abd 09a5 ce3c
00000060: 634d 4f3c e1db 12bd 277b 993b f3e8 10bc
00000070: 6e7a 483c a4c0 163d ec2a 22bd

conv1.weight_bias f4 [64]
0.21653362 0.24129932 -0.0005327285 -0.6762147 -0.0013855947 0.14849137 0.45412543 -5.3945867e-05
0.27836728 -0.00026625698 0.33961728 0.3130966 -0.20838878 -3.3965506e-09 0.12638976 0.1906883
0.41150966 -0.4938826 -0.65058017 0.57982135 0.30325776 0.57636297 0.4978376 0.30201003
0.17701536 0.19319332 0.16507155 0.0045430586 0.6117056 0.015232535 0.16628557 0.3293206
0.20780292 0.3800822 -0.23340462 0.025234044 -0.00012272231 0.31111968 -2.4282377e-08 0.22896323
0.22485518 0.29247501 0.4075285 0.30089957 0.24901755 0.62496793 0.40594783 0.32706568
-1.413401e-07 0.24609144 0.29465565 0.61063415 0.42079258 0.32159165 -0.39003268 0.35548544
0.18008897 0.2577665 -0.42883134 0.20040615 0.560563 0.5399106 -0.362521 0.23583302
00000000: fdba 5d3e 2b17 773e cea6 0bba 681c 2dbf
00000010: d89c b5ba 1f0e 183e 2183 e83e ef43 62b8
00000020: 2886 8e3e 6898 8bb9 51e2 ad3e 334e a03e
00000030: de63 55be c068 69b1 516c 013e cb43 433e
00000040: 65b1 d23e 2ede fcbe 6c8c 26bf 2c6f 143f
00000050: 9a44 9b3e 868c 133f 92e4 fe3e 0fa1 9a3e
00000060: 8443 353e 78d4 453e 8408 293e f0dd 943b
00000070: bd98 1c3f e291 793c c446 2a3e b69c a83e
00000080: 4aca 543e 229a c23e 9f01 6fbe a0b7 ce3c
00000090: 05af 00b9 144b 9f3e 8395 d0b2 5675 6a3e
000000a0: 7040 663e 49bf 953e 93a7 d03e 820f 9a3e
000000b0: 75fe 7e3e e6fd 1f3f 65d8 cf3e 2775 a73e
000000c0: 45c3 17b4 65ff 7b3e 1bdd 963e 8552 1c3f
000000d0: 2072 d73e a9a7 a43e 5db2 c7be 3002 b63e
000000e0: 3e69 383e f8f9 833e c88f dbbe 4537 4d3e
000000f0: 0f81 0f3f 9537 0a3f 5a9c b9be 367e 713e

layer1.0.conv1.weight_bias f4 [64]
0.3700019 0.19905676 0.0934994 0.29336002 0.5255478 0.43575925 0.37071887 0.2912426
0.5357461 0.21293698 0.053013157 0.7651206 0.004629284 0.4058551 0.3820869 0.47664455
0.5283418 -0.07367328 0.79011077 0.23903221 0.5743293 0.47192982 0.7891549 0.07325689
0.37866828 0.038890034 -0.11888301 0.5290289 0.009343684 -0.37448943 0.3130589 0.7766714
0.5274224 1.0198492 0.7802294 0.53279215 0.5205421 0.16292882 0.95799375 0.8745303
0.15741466 0.4976709 -0.4557556 -0.6094839 0.27199975 0.45342776 1.0852615 0.86985385
0.76357937 0.9846604 0.718992 0.8471838 0.24125776 0.70327246 0.9103782 -0.6618521
0.6443956 0.26459852 0.57566905 0.07284868 0.3431701 0.555032 -0.7735902 0.41700706
00000000: e470 bd3e 89d5 4b3e 9d7c bf3d 4933 963e
00000010: 4d8a 063f d61b df3e ddce bd3e c01d 953e
00000020: a826 093f 270c 5a3e 5324 593d f2de 433f
00000030: 40b1 973b 3dcc cf3e e5a0 c33e c10a f43e
00000040: 6941 073f 04e2 96bd b344 4a3f dcc4 743e
00000050: 3f07 133f c9a0 f13e 0e06 4a3f b507 963d
00000060: cfe0 c13e 284b 1f3d f078 f3bd 706e 073f
00000070: 4016 193c 14bd bfbe 4249 a03e f0d3 463f
00000080: 2805 073f 6b8a 823f 1dbd 473f 1165 083f
00000090: 3f42 053f d0d6 263e 143f 753f 38e1 5f3f
000000a0: 4f31 213e b8ce fe3e cc58 e9be 2307 1cbf
000000b0: 8d43 8b3e af27 e83e d9e9 8a3f beae 5e3f
000000c0: f079 433f b412 7c3f dc0f 383f 0ae1 583f
000000d0: 460c 773e aa09 343f 8c0e 693f 246f 29bf
000000e0: 1cf7 243f 7579 873e 0c5f 133f b031 953d
000000f0: feb3 af3e 9416 0e3f 020a 46bf f381 d53e

layer1.0.conv2.weight_bias f4 [64]
0.14578563 -0.050614223 -1.1061383 -0.22783789 0.049581647 -0.24851023 0.037090432 0.02639017
0.6287292 -0.02817067 0.10013819 0.4874112 0.11694816 -0.17133996 -0.011533923 0.03447245
-0.10951686 -0.02453826 -0.16034046 -0.41892076 -0.25591952 0.110868506 -0.290453 0.051182035
-0.13741644 0.54546887 -0.016328156 -0.08318414 0.1968557 0.20127474 0.5064989 0.24293733
-0.026302472 0.2294918 0.1589306 -0.029085848 -1.0036073 0.41421053 0.3907146 0.44604242
0.2806136 0.06902804 0.056807432 0.038064733 -0.19294989 -0.059316322 1.6484342 -0.0799579
-0.020302795 0.30297065 0.6234915 -0.124519594 0.066061474 0.18651214 -0.28353447 0.099804826
0.09604013 -0.15746036 0.3570165 -0.44387448 -0.074629724 0.1355631 -0.4097429 0.091479614
00000000: d448 153e dc50 4fbd f195 8dbf 564e 69be
00000010: 2016 4b3d 7779 7ebe 23ec 173d 3330 d83c
00000020: 66f4 203f 2dc6 e6bc 4015 cd3d f68d f93e
00000030: 8482 ef3d be73 2fbe c8f8 3cbc fc32 0d3d
00000040: 604a e0bd 7604 c9bc 4a30 24be c87c d6be
00000050: e207 83be 070f e33d 41b6 94be 41a4 513d
00000060: e5b6 0cbe d9a3 0b3f a0c2 85bc 725c aabd
00000070: 8a94 493e f71a 4e3e e9a9 013f 90c4 783e
00000080: 4878 d7bc e6ff 6a3e b4be 223e 7245 eebc
00000090: 3476 80bf 6713 d43e be0b c83e ac5f e43e
000000a0: 96ac 8f3e 935e 8d3d e9ae 683d c4e9 1b3d
000000b0: a894 45be acf5 72bd e4ff d23f f8c0 a3bd
000000c0: 0c52 a6bc f81e 9b3e 249d 1f3f 2104 ffbd
000000d0: 3d4b 873d 0afd 3e3e 6e2b 91be 7966 cc3d
000000e0: b0b0 c43d 4a3d 21be deca b63e 8443 e3be
000000f0: 78d7 98bd 0ed1 0a3e d2c9 d1be aa59 bb3d

layer1.1.conv1.weight_bias f4 [64]
0.2704596 -0.9225201 0.56387705 0.26232913 0.3657638 0.8536971 0.13193925 0.024092332
0.24464527 0.37160525 0.32387874 0.17889427 0.74048686 0.32176825 -0.09737928 -0.15984915
0.26597428 0.108497724 0.59835905 0.21299636 -0.26298466 0.71392417 0.7266936 0.040200617
-0.350811 0.6808908 0.811399 0.40206194 -0.33688065 0.013177253 -0.37239593 1.093529
0.3454096 0.11000806 0.59442616 1.1983707 -0.07132583 0.09650709 0.42972118 0.47824407
-0.50819874 -0.009253256 -0.38160586 0.43715912 0.47769892 0.11315796 0.044826835 -0.18802044
-1.062987 0.331359 -0.027819728 0.6027852 0.11102764 0.2836481 0.73791134 0.052413084
0.36355808 0.1510379 0.054658607 0.7477016 0.61137 0.010859795 -0.75166947 0.49574053
00000000: ae79 8a3e 472a 6cbf 3f5a 103f 0150 863e
00000010: 6545 bb3e e58b 5a3f 151b 073e 485d c53c
00000020: 4a84 7a3e 0b43 be3e 6fd3 a53e 0f30 373e
00000030: 8c90 3d3f cfbe a43e ca6e c7bd 7faf 23be
00000040: c82d 883e 0e34 de3d 0f2e 193f b81b 5a3e
00000050: eda5 86be bcc3 363f 9708 3a3f 67a9 243d
00000060: 809d b3be dc4e 2e3f d8b7 4f3f 10db cd3e
00000070: 9f7b acbe 68e5 573c aeaa bebe c2f8 8b3f
00000080: 87d9 b03e e84b e13d 502c 183f 3664 993f
00000090: 4713 92bd 82a5 c53d 6a04 dc3e 68dc f43e
000000a0: 5019 02bf f89a 17bc d861 c3be 52d3 df3e
000000b0: f494 f43e 5cbf e73d 589c 373d 6e88 40be
000000c0: f50f 88bf e3a7 a93e 33e6 e3bc 2250 1a3f
000000d0: 7662 e33d 533a 913e c2e7 3c3f 1aaf 563d
000000e0: 4924 ba3e aea9 1a3e b4e1 5f3d 5f69 3f3f
000000f0: bf82 1c3f 48ed 313c 696d 40bf b4d1 fd3e

layer1.1.conv2.weight_bias f4 [64]
-0.16186759 0.13991494 -1.1256692 0.015039906 -0.10881719 -0.20342654 -0.37438986 -0.1355605
0.70796573 0.37060466 -0.23138276 0.010922961 0.010502413 1.1260716 -0.17522278 0.08799475
0.12133131 0.23065516 -0.020119518 0.007771414 -0.005903691 -0.12079842 -0.0041147545 0.037295513
-0.25038937 0.08706789 0.1029269 0.18789838 1.0031189 0.081563905 0.09669173 0.19815549
0.73077023 -0.056485623 0.548064 -0.1584393 0.9582455 0.3825278 0.5858401 0.11749005
-0.0847743 -0.3319804 -0.2038188 0.45544034 0.4390636 0.22573149 0.5861163 -0.014140189
0.42627683 0.48948765 0.13225989 -0.23923996 0.18140298 -0.10649486 0.17820069 -0.34415996
-0.15067449 0.14447005 0.21507755 -0.2847309 -0.12677063 0.015698839 -0.039347827 -0.06868386
00000000: 9ec0 25be dd45 0f3e ee15 90bf f069 763c
00000010: 8cdb debd 0c4f 50be 07b0 bfbe 5fd0 0abe
00000020: 3e3d 353f e5bf bd3e 9aef 6cbe 38f6 323c
00000030: 5012 2c3c 1d23 903f 9a6d 33be 9736 b43d
00000040: 8d7c f83d de30 6c3e b0d1 a4bc 58a7 fe3b
00000050: c073 c1bb 2965 f7bd 10d5 86bb 2ec3 183d
00000060: 0933 80be a650 b23d 57cb d23d 6f68 403e
00000070: 3366 803f fa0a a73d 5006 c63d 46e9 4a3e
00000080: c213 3b3f 785d 67bd ec4d 0c3f e93d 22be
00000090: 944f 753f afda c33e 9ef9 153f a09e f03d
000000a0: 269e adbd 56f9 a9be e0b5 50be 7a2f e93e
000000b0: f2cc e03e 2826 673e b80b 163f 40ac 67bc
000000c0: f540 da3e 209e fa3e 236f 073e 52fb 74be
000000d0: b4c1 393e fa19 dabd 3e7a 363e bc35 b0be
000000e0: 6a4a 1abe f5ef 133e 4a3d 5c3e 40c8 91be
000000f0: 29d0 01be da9a 803c 302b 21bd 20aa 8cbd
